{"config": [{"config": {"input_dtype": "float32", "border_mode": "same", "nb_row": 4, "activation": "linear", "init": "glorot_uniform", "nb_filter": 16, "W_constraint": null, "batch_input_shape": [null, 16, 64, 1], "activity_regularizer": null, "bias": true, "name": "convolution2d_1", "b_regularizer": null, "b_constraint": null, "W_regularizer": null, "dim_ordering": "tf", "nb_col": 4, "trainable": true, "subsample": [4, 4]}, "class_name": "Convolution2D"}, {"config": {"name": "elu_1", "alpha": 1.0, "trainable": true}, "class_name": "ELU"}, {"config": {"border_mode": "valid", "name": "maxpooling2d_1", "strides": [1, 2], "dim_ordering": "tf", "pool_size": [2, 2], "trainable": true}, "class_name": "MaxPooling2D"}, {"config": {"border_mode": "same", "subsample": [2, 2], "nb_row": 2, "activation": "linear", "init": "glorot_uniform", "nb_filter": 32, "W_constraint": null, "activity_regularizer": null, "bias": true, "name": "convolution2d_2", "b_constraint": null, "W_regularizer": null, "dim_ordering": "tf", "nb_col": 2, "trainable": true, "b_regularizer": null}, "class_name": "Convolution2D"}, {"config": {"name": "elu_2", "alpha": 1.0, "trainable": true}, "class_name": "ELU"}, {"config": {"name": "dropout_1", "trainable": true, "p": 0.5}, "class_name": "Dropout"}, {"config": {"border_mode": "valid", "name": "maxpooling2d_2", "strides": [1, 2], "dim_ordering": "tf", "pool_size": [2, 2], "trainable": true}, "class_name": "MaxPooling2D"}, {"config": {"name": "flatten_1", "trainable": true}, "class_name": "Flatten"}, {"config": {"W_constraint": null, "activation": "linear", "init": "glorot_uniform", "trainable": true, "bias": true, "activity_regularizer": null, "name": "dense_1", "b_constraint": null, "W_regularizer": null, "output_dim": 512, "b_regularizer": null, "input_dim": 64}, "class_name": "Dense"}, {"config": {"name": "dropout_2", "trainable": true, "p": 0.5}, "class_name": "Dropout"}, {"config": {"name": "elu_3", "alpha": 1.0, "trainable": true}, "class_name": "ELU"}, {"config": {"W_constraint": null, "activation": "linear", "init": "glorot_uniform", "trainable": true, "bias": true, "activity_regularizer": null, "name": "dense_2", "b_constraint": null, "W_regularizer": null, "output_dim": 1, "b_regularizer": null, "input_dim": 512}, "class_name": "Dense"}], "keras_version": "1.2.0", "class_name": "Sequential"}