{"class_name": "Sequential", "config": [{"class_name": "Convolution2D", "config": {"nb_filter": 16, "nb_col": 4, "nb_row": 4, "b_constraint": null, "input_dtype": "float32", "border_mode": "same", "activity_regularizer": null, "trainable": true, "name": "convolution2d_1", "init": "glorot_uniform", "dim_ordering": "tf", "batch_input_shape": [null, 16, 64, 1], "W_regularizer": null, "bias": true, "subsample": [4, 4], "W_constraint": null, "b_regularizer": null, "activation": "linear"}}, {"class_name": "ELU", "config": {"alpha": 1.0, "name": "elu_1", "trainable": true}}, {"class_name": "MaxPooling2D", "config": {"trainable": true, "dim_ordering": "tf", "border_mode": "valid", "strides": [1, 2], "name": "maxpooling2d_1", "pool_size": [2, 2]}}, {"class_name": "Convolution2D", "config": {"nb_filter": 32, "nb_col": 2, "nb_row": 2, "b_constraint": null, "border_mode": "same", "activity_regularizer": null, "trainable": true, "name": "convolution2d_2", "init": "glorot_uniform", "dim_ordering": "tf", "W_regularizer": null, "bias": true, "subsample": [2, 2], "W_constraint": null, "b_regularizer": null, "activation": "linear"}}, {"class_name": "ELU", "config": {"alpha": 1.0, "name": "elu_2", "trainable": true}}, {"class_name": "Dropout", "config": {"p": 0.5, "name": "dropout_1", "trainable": true}}, {"class_name": "MaxPooling2D", "config": {"trainable": true, "dim_ordering": "tf", "border_mode": "valid", "strides": [1, 2], "name": "maxpooling2d_2", "pool_size": [2, 2]}}, {"class_name": "Flatten", "config": {"name": "flatten_1", "trainable": true}}, {"class_name": "Dense", "config": {"init": "glorot_uniform", "b_constraint": null, "trainable": true, "input_dim": 64, "output_dim": 512, "name": "dense_1", "b_regularizer": null, "W_regularizer": null, "activity_regularizer": null, "W_constraint": null, "activation": "linear", "bias": true}}, {"class_name": "Dropout", "config": {"p": 0.5, "name": "dropout_2", "trainable": true}}, {"class_name": "ELU", "config": {"alpha": 1.0, "name": "elu_3", "trainable": true}}, {"class_name": "Dense", "config": {"init": "glorot_uniform", "b_constraint": null, "trainable": true, "input_dim": 512, "output_dim": 1, "name": "dense_2", "b_regularizer": null, "W_regularizer": null, "activity_regularizer": null, "W_constraint": null, "activation": "linear", "bias": true}}], "keras_version": "1.2.0"}