{"class_name": "Sequential", "keras_version": "1.2.0", "config": [{"class_name": "Convolution2D", "config": {"subsample": [2, 2], "activation": "relu", "dim_ordering": "tf", "nb_filter": 16, "b_regularizer": null, "bias": true, "init": "glorot_uniform", "W_constraint": null, "nb_col": 4, "batch_input_shape": [null, 16, 64, 1], "nb_row": 4, "W_regularizer": null, "trainable": true, "activity_regularizer": null, "b_constraint": null, "border_mode": "valid", "name": "convolution2d_1", "input_dtype": "float32"}}, {"class_name": "MaxPooling2D", "config": {"dim_ordering": "tf", "strides": [2, 2], "trainable": true, "border_mode": "same", "pool_size": [2, 2], "name": "maxpooling2d_1"}}, {"class_name": "Convolution2D", "config": {"subsample": [2, 2], "activation": "relu", "dim_ordering": "tf", "nb_filter": 32, "b_regularizer": null, "bias": true, "nb_col": 2, "W_constraint": null, "init": "glorot_uniform", "nb_row": 2, "W_regularizer": null, "trainable": true, "activity_regularizer": null, "b_constraint": null, "border_mode": "valid", "name": "convolution2d_2"}}, {"class_name": "MaxPooling2D", "config": {"dim_ordering": "tf", "strides": [2, 2], "trainable": true, "border_mode": "valid", "pool_size": [2, 2], "name": "maxpooling2d_2"}}, {"class_name": "Dropout", "config": {"trainable": true, "p": 0.25, "name": "dropout_1"}}, {"class_name": "Flatten", "config": {"trainable": true, "name": "flatten_1"}}, {"class_name": "Dense", "config": {"input_dim": 128, "bias": true, "b_regularizer": null, "activation": "relu", "W_constraint": null, "init": "glorot_uniform", "W_regularizer": null, "b_constraint": null, "activity_regularizer": null, "trainable": true, "output_dim": 512, "name": "dense_1"}}, {"class_name": "Dropout", "config": {"trainable": true, "p": 0.25, "name": "dropout_2"}}, {"class_name": "Dense", "config": {"input_dim": 512, "bias": true, "b_regularizer": null, "activation": "linear", "W_constraint": null, "init": "glorot_uniform", "W_regularizer": null, "b_constraint": null, "activity_regularizer": null, "trainable": true, "output_dim": 1, "name": "dense_2"}}]}