{"config": [{"config": {"b_constraint": null, "W_regularizer": null, "trainable": true, "nb_filter": 16, "activity_regularizer": null, "name": "convolution2d_1", "init": "glorot_uniform", "border_mode": "same", "W_constraint": null, "batch_input_shape": [null, 16, 64, 1], "nb_row": 4, "dim_ordering": "tf", "input_dtype": "float32", "nb_col": 4, "b_regularizer": null, "activation": "linear", "bias": true, "subsample": [4, 4]}, "class_name": "Convolution2D"}, {"config": {"name": "elu_1", "alpha": 1.0, "trainable": true}, "class_name": "ELU"}, {"config": {"border_mode": "valid", "pool_size": [2, 2], "trainable": true, "dim_ordering": "tf", "strides": [1, 2], "name": "maxpooling2d_1"}, "class_name": "MaxPooling2D"}, {"config": {"b_constraint": null, "W_regularizer": null, "trainable": true, "nb_filter": 32, "activity_regularizer": null, "name": "convolution2d_2", "init": "glorot_uniform", "border_mode": "same", "W_constraint": null, "nb_row": 2, "dim_ordering": "tf", "nb_col": 2, "b_regularizer": null, "activation": "linear", "bias": true, "subsample": [2, 2]}, "class_name": "Convolution2D"}, {"config": {"name": "elu_2", "alpha": 1.0, "trainable": true}, "class_name": "ELU"}, {"config": {"name": "dropout_1", "p": 0.5, "trainable": true}, "class_name": "Dropout"}, {"config": {"border_mode": "valid", "pool_size": [2, 2], "trainable": true, "dim_ordering": "tf", "strides": [1, 2], "name": "maxpooling2d_2"}, "class_name": "MaxPooling2D"}, {"config": {"name": "flatten_1", "trainable": true}, "class_name": "Flatten"}, {"config": {"input_dim": 64, "b_constraint": null, "W_regularizer": null, "trainable": true, "activity_regularizer": null, "name": "dense_1", "output_dim": 512, "W_constraint": null, "init": "glorot_uniform", "b_regularizer": null, "activation": "linear", "bias": true}, "class_name": "Dense"}, {"config": {"name": "dropout_2", "p": 0.5, "trainable": true}, "class_name": "Dropout"}, {"config": {"name": "elu_3", "alpha": 1.0, "trainable": true}, "class_name": "ELU"}, {"config": {"input_dim": 512, "b_constraint": null, "W_regularizer": null, "trainable": true, "activity_regularizer": null, "name": "dense_2", "output_dim": 1, "W_constraint": null, "init": "glorot_uniform", "b_regularizer": null, "activation": "linear", "bias": true}, "class_name": "Dense"}], "keras_version": "1.2.0", "class_name": "Sequential"}