{"class_name": "Sequential", "config": [{"class_name": "Convolution2D", "config": {"init": "glorot_uniform", "bias": true, "name": "convolution2d_1", "b_constraint": null, "b_regularizer": null, "batch_input_shape": [null, 16, 64, 1], "trainable": true, "input_dtype": "float32", "activity_regularizer": null, "activation": "linear", "nb_filter": 16, "nb_row": 4, "dim_ordering": "tf", "subsample": [4, 4], "border_mode": "same", "W_constraint": null, "W_regularizer": null, "nb_col": 4}}, {"class_name": "ELU", "config": {"name": "elu_1", "alpha": 1.0, "trainable": true}}, {"class_name": "MaxPooling2D", "config": {"pool_size": [2, 2], "dim_ordering": "tf", "name": "maxpooling2d_1", "border_mode": "valid", "trainable": true, "strides": [1, 2]}}, {"class_name": "Convolution2D", "config": {"init": "glorot_uniform", "bias": true, "name": "convolution2d_2", "b_constraint": null, "b_regularizer": null, "trainable": true, "activity_regularizer": null, "activation": "linear", "nb_filter": 32, "nb_row": 2, "dim_ordering": "tf", "subsample": [2, 2], "border_mode": "same", "W_constraint": null, "W_regularizer": null, "nb_col": 2}}, {"class_name": "ELU", "config": {"name": "elu_2", "alpha": 1.0, "trainable": true}}, {"class_name": "Dropout", "config": {"name": "dropout_1", "p": 0.5, "trainable": true}}, {"class_name": "MaxPooling2D", "config": {"pool_size": [2, 2], "dim_ordering": "tf", "name": "maxpooling2d_2", "border_mode": "valid", "trainable": true, "strides": [1, 2]}}, {"class_name": "Flatten", "config": {"name": "flatten_1", "trainable": true}}, {"class_name": "Dense", "config": {"input_dim": 64, "init": "glorot_uniform", "bias": true, "name": "dense_1", "b_constraint": null, "b_regularizer": null, "trainable": true, "activity_regularizer": null, "activation": "linear", "W_constraint": null, "output_dim": 512, "W_regularizer": null}}, {"class_name": "Dropout", "config": {"name": "dropout_2", "p": 0.5, "trainable": true}}, {"class_name": "ELU", "config": {"name": "elu_3", "alpha": 1.0, "trainable": true}}, {"class_name": "Dense", "config": {"input_dim": 512, "init": "glorot_uniform", "bias": true, "name": "dense_2", "b_constraint": null, "b_regularizer": null, "trainable": true, "activity_regularizer": null, "activation": "linear", "W_constraint": null, "output_dim": 1, "W_regularizer": null}}], "keras_version": "1.2.0"}